…
&lt;pre tabindex=&#34;0&#34; class=&#34;chroma&#34;&gt;&lt;code class=&#34;language-text&#34; data-lang=&#34;text&#34;&gt;&lt;span class=&#34;line&#34;&gt;&lt;span class=&#34;cl&#34;&gt;==========================================================================================
&lt;/span&gt;&lt;/span&gt;&lt;span class=&#34;line&#34;&gt;&lt;span class=&#34;cl&#34;&gt;Layer (type:depth-idx)                   Output Shape              Param #
&lt;/span&gt;&lt;/span&gt;&lt;span class=&#34;line&#34;&gt;&lt;span class=&#34;cl&#34;&gt;==========================================================================================
&lt;/span&gt;&lt;/span&gt;&lt;span class=&#34;line&#34;&gt;&lt;span class=&#34;cl&#34;&gt;DSGCnet                                  [1, 1, 16, 16]            197,378
&lt;/span&gt;&lt;/span&gt;&lt;span class=&#34;line&#34;&gt;&lt;span class=&#34;cl&#34;&gt;├─Backbone_VGG: 1-1                      [1, 128, 64, 64]          --
&lt;/span&gt;&lt;/span&gt;&lt;span class=&#34;line&#34;&gt;&lt;span class=&#34;cl&#34;&gt;│    └─Sequential: 2-1                   [1, 128, 64, 64]          --
&lt;/span&gt;&lt;/span&gt;&lt;span class=&#34;line&#34;&gt;&lt;span class=&#34;cl&#34;&gt;│    │    └─Conv2d: 3-1                  [1, 64, 128, 128]         1,792
&lt;/span&gt;&lt;/span&gt;&lt;span class=&#34;line&#34;&gt;&lt;span class=&#34;cl&#34;&gt;│    │    └─BatchNorm2d: 3-2             [1, 64, 128, 128]         128
&lt;/span&gt;&lt;/span&gt;&lt;span class=&#34;line&#34;&gt;&lt;span class=&#34;cl&#34;&gt;│    │    └─ReLU: 3-3                    [1, 64, 128, 128]         --
&lt;/span&gt;&lt;/span&gt;&lt;span class=&#34;line&#34;&gt;&lt;span class=&#34;cl&#34;&gt;│    │    └─Conv2d: 3-4                  [1, 64, 128, 128]         36,928
&lt;/span&gt;&lt;/span&gt;&lt;span class=&#34;line&#34;&gt;&lt;span class=&#34;cl&#34;&gt;│    │    └─BatchNorm2d: 3-5             [1, 64, 128, 128]         128
&lt;/span&gt;&lt;/span&gt;&lt;span class=&#34;line&#34;&gt;&lt;span class=&#34;cl&#34;&gt;│    │    └─ReLU: 3-6                    [1, 64, 128, 128]         --
&lt;/span&gt;&lt;/span&gt;&lt;span class=&#34;line&#34;&gt;&lt;span class=&#34;cl&#34;&gt;│    │    └─MaxPool2d: 3-7               [1, 64, 64, 64]           --
&lt;/span&gt;&lt;/span&gt;&lt;span class=&#34;line&#34;&gt;&lt;span class=&#34;cl&#34;&gt;│    │    └─Conv2d: 3-8                  [1, 128, 64, 64]          73,856
&lt;/span&gt;&lt;/span&gt;&lt;span class=&#34;line&#34;&gt;&lt;span class=&#34;cl&#34;&gt;│    │    └─BatchNorm2d: 3-9             [1, 128, 64, 64]          256
&lt;/span&gt;&lt;/span&gt;&lt;span class=&#34;line&#34;&gt;&lt;span class=&#34;cl&#34;&gt;│    │    └─ReLU: 3-10                   [1, 128, 64, 64]          --
&lt;/span&gt;&lt;/span&gt;&lt;span class=&#34;line&#34;&gt;&lt;span class=&#34;cl&#34;&gt;│    │    └─Conv2d: 3-11                 [1, 128, 64, 64]          147,584
&lt;/span&gt;&lt;/span&gt;&lt;span class=&#34;line&#34;&gt;&lt;span class=&#34;cl&#34;&gt;│    │    └─BatchNorm2d: 3-12            [1, 128, 64, 64]          256
&lt;/span&gt;&lt;/span&gt;&lt;span class=&#34;line&#34;&gt;&lt;span class=&#34;cl&#34;&gt;│    │    └─ReLU: 3-13                   [1, 128, 64, 64]          --
&lt;/span&gt;&lt;/span&gt;&lt;span class=&#34;line&#34;&gt;&lt;span class=&#34;cl&#34;&gt;│    └─Sequential: 2-2                   [1, 256, 32, 32]          --
&lt;/span&gt;&lt;/span&gt;&lt;span class=&#34;line&#34;&gt;&lt;span class=&#34;cl&#34;&gt;│    │    └─MaxPool2d: 3-14              [1, 128, 32, 32]          --
&lt;/span&gt;&lt;/span&gt;&lt;span class=&#34;line&#34;&gt;&lt;span class=&#34;cl&#34;&gt;│    │    └─Conv2d: 3-15                 [1, 256, 32, 32]          295,168
&lt;/span&gt;&lt;/span&gt;&lt;span class=&#34;line&#34;&gt;&lt;span class=&#34;cl&#34;&gt;│    │    └─BatchNorm2d: 3-16            [1, 256, 32, 32]          512
&lt;/span&gt;&lt;/span&gt;&lt;span class=&#34;line&#34;&gt;&lt;span class=&#34;cl&#34;&gt;│    │    └─ReLU: 3-17                   [1, 256, 32, 32]          --
&lt;/span&gt;&lt;/span&gt;&lt;span class=&#34;line&#34;&gt;&lt;span class=&#34;cl&#34;&gt;│    │    └─Conv2d: 3-18                 [1, 256, 32, 32]          590,080
&lt;/span&gt;&lt;/span&gt;&lt;span class=&#34;line&#34;&gt;&lt;span class=&#34;cl&#34;&gt;│    │    └─BatchNorm2d: 3-19            [1, 256, 32, 32]          512
&lt;/span&gt;&lt;/span&gt;&lt;span class=&#34;line&#34;&gt;&lt;span class=&#34;cl&#34;&gt;│    │    └─ReLU: 3-20                   [1, 256, 32, 32]          --
&lt;/span&gt;&lt;/span&gt;&lt;span class=&#34;line&#34;&gt;&lt;span class=&#34;cl&#34;&gt;│    │    └─Conv2d: 3-21                 [1, 256, 32, 32]          590,080
&lt;/span&gt;&lt;/span&gt;&lt;span class=&#34;line&#34;&gt;&lt;span class=&#34;cl&#34;&gt;│    │    └─BatchNorm2d: 3-22            [1, 256, 32, 32]          512
&lt;/span&gt;&lt;/span&gt;&lt;span class=&#34;line&#34;&gt;&lt;span class=&#34;cl&#34;&gt;│    │    └─ReLU: 3-23                   [1, 256, 32, 32]          --
&lt;/span&gt;&lt;/span&gt;&lt;span class=&#34;line&#34;&gt;&lt;span class=&#34;cl&#34;&gt;│    └─Sequential: 2-3                   [1, 512, 16, 16]          --
&lt;/span&gt;&lt;/span&gt;&lt;span class=&#34;line&#34;&gt;&lt;span class=&#34;cl&#34;&gt;│    │    └─MaxPool2d: 3-24              [1, 256, 16, 16]          --
&lt;/span&gt;&lt;/span&gt;&lt;span class=&#34;line&#34;&gt;&lt;span class=&#34;cl&#34;&gt;│    │    └─Conv2d: 3-25                 [1, 512, 16, 16]          1,180,160
&lt;/span&gt;&lt;/span&gt;&lt;span class=&#34;line&#34;&gt;&lt;span class=&#34;cl&#34;&gt;│    │    └─BatchNorm2d: 3-26            [1, 512, 16, 16]          1,024
&lt;/span&gt;&lt;/span&gt;&lt;span class=&#34;line&#34;&gt;&lt;span class=&#34;cl&#34;&gt;│    │    └─ReLU: 3-27                   [1, 512, 16, 16]          --
&lt;/span&gt;&lt;/span&gt;&lt;span class=&#34;line&#34;&gt;&lt;span class=&#34;cl&#34;&gt;│    │    └─Conv2d: 3-28                 [1, 512, 16, 16]          2,359,808
&lt;/span&gt;&lt;/span&gt;&lt;span class=&#34;line&#34;&gt;&lt;span class=&#34;cl&#34;&gt;│    │    └─BatchNorm2d: 3-29            [1, 512, 16, 16]          1,024
&lt;/span&gt;&lt;/span&gt;&lt;span class=&#34;line&#34;&gt;&lt;span class=&#34;cl&#34;&gt;│    │    └─ReLU: 3-30                   [1, 512, 16, 16]          --
&lt;/span&gt;&lt;/span&gt;&lt;span class=&#34;line&#34;&gt;&lt;span class=&#34;cl&#34;&gt;│    │    └─Conv2d: 3-31                 [1, 512, 16, 16]          2,359,808
&lt;/span&gt;&lt;/span&gt;&lt;span class=&#34;line&#34;&gt;&lt;span class=&#34;cl&#34;&gt;│    │    └─BatchNorm2d: 3-32            [1, 512, 16, 16]          1,024
&lt;/span&gt;&lt;/span&gt;&lt;span class=&#34;line&#34;&gt;&lt;span class=&#34;cl&#34;&gt;│    │    └─ReLU: 3-33                   [1, 512, 16, 16]          --
&lt;/span&gt;&lt;/span&gt;&lt;span class=&#34;line&#34;&gt;&lt;span class=&#34;cl&#34;&gt;│    └─Sequential: 2-4                   [1, 512, 8, 8]            --
&lt;/span&gt;&lt;/span&gt;&lt;span class=&#34;line&#34;&gt;&lt;span class=&#34;cl&#34;&gt;│    │    └─MaxPool2d: 3-34              [1, 512, 8, 8]            --
&lt;/span&gt;&lt;/span&gt;&lt;span class=&#34;line&#34;&gt;&lt;span class=&#34;cl&#34;&gt;│    │    └─Conv2d: 3-35                 [1, 512, 8, 8]            2,359,808
&lt;/span&gt;&lt;/span&gt;&lt;span class=&#34;line&#34;&gt;&lt;span class=&#34;cl&#34;&gt;│    │    └─BatchNorm2d: 3-36            [1, 512, 8, 8]            1,024
&lt;/span&gt;&lt;/span&gt;&lt;span class=&#34;line&#34;&gt;&lt;span class=&#34;cl&#34;&gt;│    │    └─ReLU: 3-37                   [1, 512, 8, 8]            --
&lt;/span&gt;&lt;/span&gt;&lt;span class=&#34;line&#34;&gt;&lt;span class=&#34;cl&#34;&gt;│    │    └─Conv2d: 3-38                 [1, 512, 8, 8]            2,359,808
&lt;/span&gt;&lt;/span&gt;&lt;span class=&#34;line&#34;&gt;&lt;span class=&#34;cl&#34;&gt;│    │    └─BatchNorm2d: 3-39            [1, 512, 8, 8]            1,024
&lt;/span&gt;&lt;/span&gt;&lt;span class=&#34;line&#34;&gt;&lt;span class=&#34;cl&#34;&gt;│    │    └─ReLU: 3-40                   [1, 512, 8, 8]            --
&lt;/span&gt;&lt;/span&gt;&lt;span class=&#34;line&#34;&gt;&lt;span class=&#34;cl&#34;&gt;│    │    └─Conv2d: 3-41                 [1, 512, 8, 8]            2,359,808
&lt;/span&gt;&lt;/span&gt;&lt;span class=&#34;line&#34;&gt;&lt;span class=&#34;cl&#34;&gt;│    │    └─BatchNorm2d: 3-42            [1, 512, 8, 8]            1,024
&lt;/span&gt;&lt;/span&gt;&lt;span class=&#34;line&#34;&gt;&lt;span class=&#34;cl&#34;&gt;│    │    └─ReLU: 3-43                   [1, 512, 8, 8]            --
&lt;/span&gt;&lt;/span&gt;&lt;span class=&#34;line&#34;&gt;&lt;span class=&#34;cl&#34;&gt;├─Decoder_SPD_PAFPN: 1-2                 [1, 256, 16, 16]          --
&lt;/span&gt;&lt;/span&gt;&lt;span class=&#34;line&#34;&gt;&lt;span class=&#34;cl&#34;&gt;│    └─Sequential: 2-5                   [1, 256, 8, 8]            --
&lt;/span&gt;&lt;/span&gt;&lt;span class=&#34;line&#34;&gt;&lt;span class=&#34;cl&#34;&gt;│    │    └─Conv2d: 3-44                 [1, 256, 8, 8]            131,328
&lt;/span&gt;&lt;/span&gt;&lt;span class=&#34;line&#34;&gt;&lt;span class=&#34;cl&#34;&gt;│    │    └─BatchNorm2d: 3-45            [1, 256, 8, 8]            512
&lt;/span&gt;&lt;/span&gt;&lt;span class=&#34;line&#34;&gt;&lt;span class=&#34;cl&#34;&gt;│    │    └─ReLU: 3-46                   [1, 256, 8, 8]            --
&lt;/span&gt;&lt;/span&gt;&lt;span class=&#34;line&#34;&gt;&lt;span class=&#34;cl&#34;&gt;│    └─Upsample: 2-6                     [1, 256, 16, 16]          --
&lt;/span&gt;&lt;/span&gt;&lt;span class=&#34;line&#34;&gt;&lt;span class=&#34;cl&#34;&gt;│    └─Sequential: 2-7                   [1, 256, 8, 8]            --
&lt;/span&gt;&lt;/span&gt;&lt;span class=&#34;line&#34;&gt;&lt;span class=&#34;cl&#34;&gt;│    │    └─Conv2d: 3-47                 [1, 256, 8, 8]            590,080
&lt;/span&gt;&lt;/span&gt;&lt;span class=&#34;line&#34;&gt;&lt;span class=&#34;cl&#34;&gt;│    │    └─BatchNorm2d: 3-48            [1, 256, 8, 8]            512
&lt;/span&gt;&lt;/span&gt;&lt;span class=&#34;line&#34;&gt;&lt;span class=&#34;cl&#34;&gt;│    │    └─ReLU: 3-49                   [1, 256, 8, 8]            --
&lt;/span&gt;&lt;/span&gt;&lt;span class=&#34;line&#34;&gt;&lt;span class=&#34;cl&#34;&gt;│    └─Sequential: 2-8                   [1, 256, 16, 16]          --
&lt;/span&gt;&lt;/span&gt;&lt;span class=&#34;line&#34;&gt;&lt;span class=&#34;cl&#34;&gt;│    │    └─Conv2d: 3-50                 [1, 256, 16, 16]          131,328
&lt;/span&gt;&lt;/span&gt;&lt;span class=&#34;line&#34;&gt;&lt;span class=&#34;cl&#34;&gt;│    │    └─BatchNorm2d: 3-51            [1, 256, 16, 16]          512
&lt;/span&gt;&lt;/span&gt;&lt;span class=&#34;line&#34;&gt;&lt;span class=&#34;cl&#34;&gt;│    │    └─ReLU: 3-52                   [1, 256, 16, 16]          --
&lt;/span&gt;&lt;/span&gt;&lt;span class=&#34;line&#34;&gt;&lt;span class=&#34;cl&#34;&gt;│    └─Upsample: 2-9                     [1, 256, 32, 32]          --
&lt;/span&gt;&lt;/span&gt;&lt;span class=&#34;line&#34;&gt;&lt;span class=&#34;cl&#34;&gt;│    └─Sequential: 2-10                  [1, 256, 16, 16]          --
&lt;/span&gt;&lt;/span&gt;&lt;span class=&#34;line&#34;&gt;&lt;span class=&#34;cl&#34;&gt;│    │    └─Conv2d: 3-53                 [1, 256, 16, 16]          590,080
&lt;/span&gt;&lt;/span&gt;&lt;span class=&#34;line&#34;&gt;&lt;span class=&#34;cl&#34;&gt;│    │    └─BatchNorm2d: 3-54            [1, 256, 16, 16]          512
&lt;/span&gt;&lt;/span&gt;&lt;span class=&#34;line&#34;&gt;&lt;span class=&#34;cl&#34;&gt;│    │    └─ReLU: 3-55                   [1, 256, 16, 16]          --
&lt;/span&gt;&lt;/span&gt;&lt;span class=&#34;line&#34;&gt;&lt;span class=&#34;cl&#34;&gt;│    └─Sequential: 2-11                  [1, 256, 32, 32]          --
&lt;/span&gt;&lt;/span&gt;&lt;span class=&#34;line&#34;&gt;&lt;span class=&#34;cl&#34;&gt;│    │    └─Conv2d: 3-56                 [1, 256, 32, 32]          65,792
&lt;/span&gt;&lt;/span&gt;&lt;span class=&#34;line&#34;&gt;&lt;span class=&#34;cl&#34;&gt;│    │    └─BatchNorm2d: 3-57            [1, 256, 32, 32]          512
&lt;/span&gt;&lt;/span&gt;&lt;span class=&#34;line&#34;&gt;&lt;span class=&#34;cl&#34;&gt;│    │    └─ReLU: 3-58                   [1, 256, 32, 32]          --
&lt;/span&gt;&lt;/span&gt;&lt;span class=&#34;line&#34;&gt;&lt;span class=&#34;cl&#34;&gt;│    └─Sequential: 2-12                  [1, 256, 32, 32]          --
&lt;/span&gt;&lt;/span&gt;&lt;span class=&#34;line&#34;&gt;&lt;span class=&#34;cl&#34;&gt;│    │    └─Conv2d: 3-59                 [1, 256, 32, 32]          590,080
&lt;/span&gt;&lt;/span&gt;&lt;span class=&#34;line&#34;&gt;&lt;span class=&#34;cl&#34;&gt;│    │    └─BatchNorm2d: 3-60            [1, 256, 32, 32]          512
&lt;/span&gt;&lt;/span&gt;&lt;span class=&#34;line&#34;&gt;&lt;span class=&#34;cl&#34;&gt;│    │    └─ReLU: 3-61                   [1, 256, 32, 32]          --
&lt;/span&gt;&lt;/span&gt;&lt;span class=&#34;line&#34;&gt;&lt;span class=&#34;cl&#34;&gt;│    └─Sequential: 2-13                  [1, 256, 16, 16]          --
&lt;/span&gt;&lt;/span&gt;&lt;span class=&#34;line&#34;&gt;&lt;span class=&#34;cl&#34;&gt;│    │    └─SPD: 3-62                    [1, 1024, 16, 16]         --
&lt;/span&gt;&lt;/span&gt;&lt;span class=&#34;line&#34;&gt;&lt;span class=&#34;cl&#34;&gt;│    │    └─Conv2d: 3-63                 [1, 256, 16, 16]          262,400
&lt;/span&gt;&lt;/span&gt;&lt;span class=&#34;line&#34;&gt;&lt;span class=&#34;cl&#34;&gt;│    │    └─BatchNorm2d: 3-64            [1, 256, 16, 16]          512
&lt;/span&gt;&lt;/span&gt;&lt;span class=&#34;line&#34;&gt;&lt;span class=&#34;cl&#34;&gt;│    │    └─ReLU: 3-65                   [1, 256, 16, 16]          --
&lt;/span&gt;&lt;/span&gt;&lt;span class=&#34;line&#34;&gt;&lt;span class=&#34;cl&#34;&gt;│    └─Sequential: 2-14                  [1, 256, 16, 16]          (recursive)
&lt;/span&gt;&lt;/span&gt;&lt;span class=&#34;line&#34;&gt;&lt;span class=&#34;cl&#34;&gt;│    │    └─Conv2d: 3-66                 [1, 256, 16, 16]          (recursive)
&lt;/span&gt;&lt;/span&gt;&lt;span class=&#34;line&#34;&gt;&lt;span class=&#34;cl&#34;&gt;│    │    └─BatchNorm2d: 3-67            [1, 256, 16, 16]          (recursive)
&lt;/span&gt;&lt;/span&gt;&lt;span class=&#34;line&#34;&gt;&lt;span class=&#34;cl&#34;&gt;│    │    └─ReLU: 3-68                   [1, 256, 16, 16]          --
&lt;/span&gt;&lt;/span&gt;&lt;span class=&#34;line&#34;&gt;&lt;span class=&#34;cl&#34;&gt;│    └─Sequential: 2-15                  [1, 256, 8, 8]            --
&lt;/span&gt;&lt;/span&gt;&lt;span class=&#34;line&#34;&gt;&lt;span class=&#34;cl&#34;&gt;│    │    └─SPD: 3-69                    [1, 1024, 8, 8]           --
&lt;/span&gt;&lt;/span&gt;&lt;span class=&#34;line&#34;&gt;&lt;span class=&#34;cl&#34;&gt;│    │    └─Conv2d: 3-70                 [1, 256, 8, 8]            262,400
&lt;/span&gt;&lt;/span&gt;&lt;span class=&#34;line&#34;&gt;&lt;span class=&#34;cl&#34;&gt;│    │    └─BatchNorm2d: 3-71            [1, 256, 8, 8]            512
&lt;/span&gt;&lt;/span&gt;&lt;span class=&#34;line&#34;&gt;&lt;span class=&#34;cl&#34;&gt;│    │    └─ReLU: 3-72                   [1, 256, 8, 8]            --
&lt;/span&gt;&lt;/span&gt;&lt;span class=&#34;line&#34;&gt;&lt;span class=&#34;cl&#34;&gt;│    └─Sequential: 2-16                  [1, 256, 8, 8]            (recursive)
&lt;/span&gt;&lt;/span&gt;&lt;span class=&#34;line&#34;&gt;&lt;span class=&#34;cl&#34;&gt;│    │    └─Conv2d: 3-73                 [1, 256, 8, 8]            (recursive)
&lt;/span&gt;&lt;/span&gt;&lt;span class=&#34;line&#34;&gt;&lt;span class=&#34;cl&#34;&gt;│    │    └─BatchNorm2d: 3-74            [1, 256, 8, 8]            (recursive)
&lt;/span&gt;&lt;/span&gt;&lt;span class=&#34;line&#34;&gt;&lt;span class=&#34;cl&#34;&gt;│    │    └─ReLU: 3-75                   [1, 256, 8, 8]            --
&lt;/span&gt;&lt;/span&gt;&lt;span class=&#34;line&#34;&gt;&lt;span class=&#34;cl&#34;&gt;│    └─Upsample: 2-17                    [1, 256, 16, 16]          --
&lt;/span&gt;&lt;/span&gt;&lt;span class=&#34;line&#34;&gt;&lt;span class=&#34;cl&#34;&gt;│    └─Sequential: 2-18                  [1, 256, 16, 16]          --
&lt;/span&gt;&lt;/span&gt;&lt;span class=&#34;line&#34;&gt;&lt;span class=&#34;cl&#34;&gt;│    │    └─Conv2d: 3-76                 [1, 256, 16, 16]          196,864
&lt;/span&gt;&lt;/span&gt;&lt;span class=&#34;line&#34;&gt;&lt;span class=&#34;cl&#34;&gt;│    │    └─BatchNorm2d: 3-77            [1, 256, 16, 16]          512
&lt;/span&gt;&lt;/span&gt;&lt;span class=&#34;line&#34;&gt;&lt;span class=&#34;cl&#34;&gt;│    │    └─ReLU: 3-78                   [1, 256, 16, 16]          --
&lt;/span&gt;&lt;/span&gt;&lt;span class=&#34;line&#34;&gt;&lt;span class=&#34;cl&#34;&gt;├─Density_pred: 1-3                      [1, 1, 16, 16]            --
&lt;/span&gt;&lt;/span&gt;&lt;span class=&#34;line&#34;&gt;&lt;span class=&#34;cl&#34;&gt;│    └─Sequential: 2-19                  [1, 256, 16, 16]          --
&lt;/span&gt;&lt;/span&gt;&lt;span class=&#34;line&#34;&gt;&lt;span class=&#34;cl&#34;&gt;│    │    └─Conv2d: 3-79                 [1, 256, 16, 16]          590,080
&lt;/span&gt;&lt;/span&gt;&lt;span class=&#34;line&#34;&gt;&lt;span class=&#34;cl&#34;&gt;│    │    └─BatchNorm2d: 3-80            [1, 256, 16, 16]          512
&lt;/span&gt;&lt;/span&gt;&lt;span class=&#34;line&#34;&gt;&lt;span class=&#34;cl&#34;&gt;│    │    └─ReLU: 3-81                   [1, 256, 16, 16]          --
&lt;/span&gt;&lt;/span&gt;&lt;span class=&#34;line&#34;&gt;&lt;span class=&#34;cl&#34;&gt;│    └─Sequential: 2-20                  [1, 256, 16, 16]          --
&lt;/span&gt;&lt;/span&gt;&lt;span class=&#34;line&#34;&gt;&lt;span class=&#34;cl&#34;&gt;│    │    └─Conv2d: 3-82                 [1, 256, 16, 16]          590,080
&lt;/span&gt;&lt;/span&gt;&lt;span class=&#34;line&#34;&gt;&lt;span class=&#34;cl&#34;&gt;│    │    └─BatchNorm2d: 3-83            [1, 256, 16, 16]          512
&lt;/span&gt;&lt;/span&gt;&lt;span class=&#34;line&#34;&gt;&lt;span class=&#34;cl&#34;&gt;│    │    └─ReLU: 3-84                   [1, 256, 16, 16]          --
&lt;/span&gt;&lt;/span&gt;&lt;span class=&#34;line&#34;&gt;&lt;span class=&#34;cl&#34;&gt;│    └─Sequential: 2-21                  [1, 256, 16, 16]          --
&lt;/span&gt;&lt;/span&gt;&lt;span class=&#34;line&#34;&gt;&lt;span class=&#34;cl&#34;&gt;│    │    └─Conv2d: 3-85                 [1, 256, 16, 16]          590,080
&lt;/span&gt;&lt;/span&gt;&lt;span class=&#34;line&#34;&gt;&lt;span class=&#34;cl&#34;&gt;│    │    └─BatchNorm2d: 3-86            [1, 256, 16, 16]          512
&lt;/span&gt;&lt;/span&gt;&lt;span class=&#34;line&#34;&gt;&lt;span class=&#34;cl&#34;&gt;│    │    └─ReLU: 3-87                   [1, 256, 16, 16]          --
&lt;/span&gt;&lt;/span&gt;&lt;span class=&#34;line&#34;&gt;&lt;span class=&#34;cl&#34;&gt;│    └─Sequential: 2-22                  [1, 1, 16, 16]            --
&lt;/span&gt;&lt;/span&gt;&lt;span class=&#34;line&#34;&gt;&lt;span class=&#34;cl&#34;&gt;│    │    └─Conv2d: 3-88                 [1, 128, 16, 16]          295,040
&lt;/span&gt;&lt;/span&gt;&lt;span class=&#34;line&#34;&gt;&lt;span class=&#34;cl&#34;&gt;│    │    └─BatchNorm2d: 3-89            [1, 128, 16, 16]          256
&lt;/span&gt;&lt;/span&gt;&lt;span class=&#34;line&#34;&gt;&lt;span class=&#34;cl&#34;&gt;│    │    └─ReLU: 3-90                   [1, 128, 16, 16]          --
&lt;/span&gt;&lt;/span&gt;&lt;span class=&#34;line&#34;&gt;&lt;span class=&#34;cl&#34;&gt;│    │    └─Conv2d: 3-91                 [1, 64, 16, 16]           73,792
&lt;/span&gt;&lt;/span&gt;&lt;span class=&#34;line&#34;&gt;&lt;span class=&#34;cl&#34;&gt;│    │    └─BatchNorm2d: 3-92            [1, 64, 16, 16]           128
&lt;/span&gt;&lt;/span&gt;&lt;span class=&#34;line&#34;&gt;&lt;span class=&#34;cl&#34;&gt;│    │    └─ReLU: 3-93                   [1, 64, 16, 16]           --
&lt;/span&gt;&lt;/span&gt;&lt;span class=&#34;line&#34;&gt;&lt;span class=&#34;cl&#34;&gt;│    │    └─Conv2d: 3-94                 [1, 1, 16, 16]            65
&lt;/span&gt;&lt;/span&gt;&lt;span class=&#34;line&#34;&gt;&lt;span class=&#34;cl&#34;&gt;│    │    └─ReLU: 3-95                   [1, 1, 16, 16]            --
&lt;/span&gt;&lt;/span&gt;&lt;span class=&#34;line&#34;&gt;&lt;span class=&#34;cl&#34;&gt;├─DensityGCNProcessor: 1-4               [1, 256, 16, 16]          --
&lt;/span&gt;&lt;/span&gt;&lt;span class=&#34;line&#34;&gt;&lt;span class=&#34;cl&#34;&gt;│    └─GCNModel: 2-23                    [256, 256]                --
&lt;/span&gt;&lt;/span&gt;&lt;span class=&#34;line&#34;&gt;&lt;span class=&#34;cl&#34;&gt;│    │    └─GCNConv: 3-96                [256, 512]                131,584
&lt;/span&gt;&lt;/span&gt;&lt;span class=&#34;line&#34;&gt;&lt;span class=&#34;cl&#34;&gt;│    │    └─GCNConv: 3-97                [256, 256]                131,328
&lt;/span&gt;&lt;/span&gt;&lt;span class=&#34;line&#34;&gt;&lt;span class=&#34;cl&#34;&gt;├─FeatureGCNProcessor: 1-5               [1, 256, 16, 16]          --
&lt;/span&gt;&lt;/span&gt;&lt;span class=&#34;line&#34;&gt;&lt;span class=&#34;cl&#34;&gt;│    └─GCNModel: 2-24                    [256, 256]                --
&lt;/span&gt;&lt;/span&gt;&lt;span class=&#34;line&#34;&gt;&lt;span class=&#34;cl&#34;&gt;│    │    └─GCNConv: 3-98                [256, 512]                131,584
&lt;/span&gt;&lt;/span&gt;&lt;span class=&#34;line&#34;&gt;&lt;span class=&#34;cl&#34;&gt;│    │    └─GCNConv: 3-99                [256, 256]                131,328
&lt;/span&gt;&lt;/span&gt;&lt;span class=&#34;line&#34;&gt;&lt;span class=&#34;cl&#34;&gt;├─RegressionModel: 1-6                   [1, 1024, 2]              1,180,160
&lt;/span&gt;&lt;/span&gt;&lt;span class=&#34;line&#34;&gt;&lt;span class=&#34;cl&#34;&gt;│    └─Conv2d: 2-25                      [1, 256, 16, 16]          590,080
&lt;/span&gt;&lt;/span&gt;&lt;span class=&#34;line&#34;&gt;&lt;span class=&#34;cl&#34;&gt;│    └─ReLU: 2-26                        [1, 256, 16, 16]          --
&lt;/span&gt;&lt;/span&gt;&lt;span class=&#34;line&#34;&gt;&lt;span class=&#34;cl&#34;&gt;│    └─Conv2d: 2-27                      [1, 256, 16, 16]          590,080
&lt;/span&gt;&lt;/span&gt;&lt;span class=&#34;line&#34;&gt;&lt;span class=&#34;cl&#34;&gt;│    └─ReLU: 2-28                        [1, 256, 16, 16]          --
&lt;/span&gt;&lt;/span&gt;&lt;span class=&#34;line&#34;&gt;&lt;span class=&#34;cl&#34;&gt;│    └─Conv2d: 2-29                      [1, 8, 16, 16]            18,440
&lt;/span&gt;&lt;/span&gt;&lt;span class=&#34;line&#34;&gt;&lt;span class=&#34;cl&#34;&gt;├─ClassificationModel: 1-7               [1, 1024, 2]              1,180,160
&lt;/span&gt;&lt;/span&gt;&lt;span class=&#34;line&#34;&gt;&lt;span class=&#34;cl&#34;&gt;│    └─Conv2d: 2-30                      [1, 256, 16, 16]          590,080
&lt;/span&gt;&lt;/span&gt;&lt;span class=&#34;line&#34;&gt;&lt;span class=&#34;cl&#34;&gt;│    └─ReLU: 2-31                        [1, 256, 16, 16]          --
&lt;/span&gt;&lt;/span&gt;&lt;span class=&#34;line&#34;&gt;&lt;span class=&#34;cl&#34;&gt;│    └─Conv2d: 2-32                      [1, 256, 16, 16]          590,080
&lt;/span&gt;&lt;/span&gt;&lt;span class=&#34;line&#34;&gt;&lt;span class=&#34;cl&#34;&gt;│    └─ReLU: 2-33                        [1, 256, 16, 16]          --
&lt;/span&gt;&lt;/span&gt;&lt;span class=&#34;line&#34;&gt;&lt;span class=&#34;cl&#34;&gt;│    └─Conv2d: 2-34                      [1, 8, 16, 16]            18,440
&lt;/span&gt;&lt;/span&gt;&lt;span class=&#34;line&#34;&gt;&lt;span class=&#34;cl&#34;&gt;├─AnchorPoints: 1-8                      [1, 1024, 2]              --
&lt;/span&gt;&lt;/span&gt;&lt;span class=&#34;line&#34;&gt;&lt;span class=&#34;cl&#34;&gt;==========================================================================================
&lt;/span&gt;&lt;/span&gt;&lt;span class=&#34;line&#34;&gt;&lt;span class=&#34;cl&#34;&gt;Total params: 25,169,875
&lt;/span&gt;&lt;/span&gt;&lt;span class=&#34;line&#34;&gt;&lt;span class=&#34;cl&#34;&gt;Trainable params: 25,169,875
…
&lt;/span&gt;&lt;/span&gt;&lt;span class=&#34;line&#34;&gt;&lt;span class=&#34;cl&#34;&gt;│    │    └─PatchEmbed: 3-3                                  [1, 1369, 1024]           (603,136)
&lt;/span&gt;&lt;/span&gt;&lt;span class=&#34;line&#34;&gt;&lt;span class=&#34;cl&#34;&gt;│    │    └─ModuleList: 3-4                                  --                        (302,358,528)
&lt;/span&gt;&lt;/span&gt;&lt;span class=&#34;line&#34;&gt;&lt;span class=&#34;cl&#34;&gt;│    │    └─LayerNorm: 3-5                                   [1, 1370, 1024]           (2,048)
&lt;/span&gt;&lt;/span&gt;&lt;span class=&#34;line&#34;&gt;&lt;span class=&#34;cl&#34;&gt;├─interpolate_upsample: 1-3                                  [1, 1024, 11, 11]         --
&lt;/span&gt;&lt;/span&gt;&lt;span class=&#34;line&#34;&gt;&lt;span class=&#34;cl&#34;&gt;├─DepthwiseSeparableConvWithWTConv2d: 1-4                    [1, 1152, 11, 11]         --
&lt;/span&gt;&lt;/span&gt;&lt;span class=&#34;line&#34;&gt;&lt;span class=&#34;cl&#34;&gt;│    └─WTConv2d: 2-3                                         [1, 1024, 11, 11]         32,768
&lt;/span&gt;&lt;/span&gt;&lt;span class=&#34;line&#34;&gt;&lt;span class=&#34;cl&#34;&gt;│    │    └─ModuleList: 3-6                                  --                        36,864
&lt;/span&gt;&lt;/span&gt;&lt;span class=&#34;line&#34;&gt;&lt;span class=&#34;cl&#34;&gt;│    │    └─ModuleList: 3-7                                  --                        4,096
&lt;/span&gt;&lt;/span&gt;&lt;span class=&#34;line&#34;&gt;&lt;span class=&#34;cl&#34;&gt;│    │    └─Conv2d: 3-8                                      [1, 1024, 11, 11]         10,240
&lt;/span&gt;&lt;/span&gt;&lt;span class=&#34;line&#34;&gt;&lt;span class=&#34;cl&#34;&gt;│    │    └─_ScaleModule: 3-9                                [1, 1024, 11, 11]         1,024
&lt;/span&gt;&lt;/span&gt;&lt;span class=&#34;line&#34;&gt;&lt;span class=&#34;cl&#34;&gt;│    └─Conv2d: 2-4                                           [1, 1152, 11, 11]         1,179,648
&lt;/span&gt;&lt;/span&gt;&lt;span class=&#34;line&#34;&gt;&lt;span class=&#34;cl&#34;&gt;│    └─BatchNorm2d: 2-5                                      [1, 1152, 11, 11]         2,304
&lt;/span&gt;&lt;/span&gt;&lt;span class=&#34;line&#34;&gt;&lt;span class=&#34;cl&#34;&gt;│    └─ReLU: 2-6                                             [1, 1152, 11, 11]         --
&lt;/span&gt;&lt;/span&gt;&lt;span class=&#34;line&#34;&gt;&lt;span class=&#34;cl&#34;&gt;├─CGAFusion: 1-5                                             [1, 1152, 11, 11]         --
&lt;/span&gt;&lt;/span&gt;&lt;span class=&#34;line&#34;&gt;&lt;span class=&#34;cl&#34;&gt;│    └─ChannelAttention: 2-7                                 [1, 1152, 1, 1]           --
&lt;/span&gt;&lt;/span&gt;&lt;span class=&#34;line&#34;&gt;&lt;span class=&#34;cl&#34;&gt;│    │    └─AdaptiveAvgPool2d: 3-10                          [1, 1152, 1, 1]           --
&lt;/span&gt;&lt;/span&gt;&lt;span class=&#34;line&#34;&gt;&lt;span class=&#34;cl&#34;&gt;│    │    └─Sequential: 3-11                                 [1, 1152, 1, 1]           333,072
&lt;/span&gt;&lt;/span&gt;&lt;span class=&#34;line&#34;&gt;&lt;span class=&#34;cl&#34;&gt;│    └─SpatialAttention: 2-8                                 [1, 1, 11, 11]            --
&lt;/span&gt;&lt;/span&gt;&lt;span class=&#34;line&#34;&gt;&lt;span class=&#34;cl&#34;&gt;│    │    └─Conv2d: 3-12                                     [1, 1, 11, 11]            99
&lt;/span&gt;&lt;/span&gt;&lt;span class=&#34;line&#34;&gt;&lt;span class=&#34;cl&#34;&gt;│    └─PixelAttention: 2-9                                   [1, 1152, 11, 11]         --
&lt;/span&gt;&lt;/span&gt;&lt;span class=&#34;line&#34;&gt;&lt;span class=&#34;cl&#34;&gt;│    │    └─Conv2d: 3-13                                     [1, 1152, 11, 11]         114,048
&lt;/span&gt;&lt;/span&gt;&lt;span class=&#34;line&#34;&gt;&lt;span class=&#34;cl&#34;&gt;│    │    └─Sigmoid: 3-14                                    [1, 1152, 11, 11]         --
&lt;/span&gt;&lt;/span&gt;&lt;span class=&#34;line&#34;&gt;&lt;span class=&#34;cl&#34;&gt;│    └─Sigmoid: 2-10                                         [1, 1152, 11, 11]         --
&lt;/span&gt;&lt;/span&gt;&lt;span class=&#34;line&#34;&gt;&lt;span class=&#34;cl&#34;&gt;│    └─Conv2d: 2-11                                          [1, 1152, 11, 11]         1,328,256
&lt;/span&gt;&lt;/span&gt;&lt;span class=&#34;line&#34;&gt;&lt;span class=&#34;cl&#34;&gt;├─RFB_modified: 1-6                                          [1, 64, 88, 88]           --
&lt;/span&gt;&lt;/span&gt;&lt;span class=&#34;line&#34;&gt;&lt;span class=&#34;cl&#34;&gt;│    └─Sequential: 2-12                                      [1, 64, 88, 88]           --
&lt;/span&gt;&lt;/span&gt;&lt;span class=&#34;line&#34;&gt;&lt;span class=&#34;cl&#34;&gt;│    │    └─BasicConv2d: 3-15                                [1, 64, 88, 88]           9,344
&lt;/span&gt;&lt;/span&gt;&lt;span class=&#34;line&#34;&gt;&lt;span class=&#34;cl&#34;&gt;│    └─Sequential: 2-13                                      [1, 64, 88, 88]           --
&lt;/span&gt;&lt;/span&gt;&lt;span class=&#34;line&#34;&gt;&lt;span class=&#34;cl&#34;&gt;│    │    └─BasicConv2d: 3-16                                [1, 64, 88, 88]           9,344
&lt;/span&gt;&lt;/span&gt;&lt;span class=&#34;line&#34;&gt;&lt;span class=&#34;cl&#34;&gt;│    │    └─BasicConv2d: 3-17                                [1, 64, 88, 88]           12,416
&lt;/span&gt;&lt;/span&gt;&lt;span class=&#34;line&#34;&gt;&lt;span class=&#34;cl&#34;&gt;│    │    └─BasicConv2d: 3-18                                [1, 64, 88, 88]           12,416
&lt;/span&gt;&lt;/span&gt;&lt;span class=&#34;line&#34;&gt;&lt;span class=&#34;cl&#34;&gt;│    │    └─BasicConv2d: 3-19                                [1, 64, 88, 88]           36,992
&lt;/span&gt;&lt;/span&gt;&lt;span class=&#34;line&#34;&gt;&lt;span class=&#34;cl&#34;&gt;│    └─Sequential: 2-14                                      [1, 64, 88, 88]           --
&lt;/span&gt;&lt;/span&gt;&lt;span class=&#34;line&#34;&gt;&lt;span class=&#34;cl&#34;&gt;│    │    └─BasicConv2d: 3-20                                [1, 64, 88, 88]           9,344
&lt;/span&gt;&lt;/span&gt;&lt;span class=&#34;line&#34;&gt;&lt;span class=&#34;cl&#34;&gt;│    │    └─BasicConv2d: 3-21                                [1, 64, 88, 88]           20,608
&lt;/span&gt;&lt;/span&gt;&lt;span class=&#34;line&#34;&gt;&lt;span class=&#34;cl&#34;&gt;│    │    └─BasicConv2d: 3-22                                [1, 64, 88, 88]           20,608
&lt;/span&gt;&lt;/span&gt;&lt;span class=&#34;line&#34;&gt;&lt;span class=&#34;cl&#34;&gt;│    │    └─BasicConv2d: 3-23                                [1, 64, 88, 88]           36,992
&lt;/span&gt;&lt;/span&gt;&lt;span class=&#34;line&#34;&gt;&lt;span class=&#34;cl&#34;&gt;│    └─Sequential: 2-15                                      [1, 64, 88, 88]           --
&lt;/span&gt;&lt;/span&gt;&lt;span class=&#34;line&#34;&gt;&lt;span class=&#34;cl&#34;&gt;│    │    └─BasicConv2d: 3-24                                [1, 64, 88, 88]           9,344
&lt;/span&gt;&lt;/span&gt;&lt;span class=&#34;line&#34;&gt;&lt;span class=&#34;cl&#34;&gt;│    │    └─BasicConv2d: 3-25                                [1, 64, 88, 88]           28,800
&lt;/span&gt;&lt;/span&gt;&lt;span class=&#34;line&#34;&gt;&lt;span class=&#34;cl&#34;&gt;│    │    └─BasicConv2d: 3-26                                [1, 64, 88, 88]           28,800
&lt;/span&gt;&lt;/span&gt;&lt;span class=&#34;line&#34;&gt;&lt;span class=&#34;cl&#34;&gt;│    │    └─BasicConv2d: 3-27                                [1, 64, 88, 88]           36,992
&lt;/span&gt;&lt;/span&gt;&lt;span class=&#34;line&#34;&gt;&lt;span class=&#34;cl&#34;&gt;│    └─BasicConv2d: 2-16                                     [1, 64, 88, 88]           --
&lt;/span&gt;&lt;/span&gt;&lt;span class=&#34;line&#34;&gt;&lt;span class=&#34;cl&#34;&gt;│    │    └─Conv2d: 3-28                                     [1, 64, 88, 88]           147,456
&lt;/span&gt;&lt;/span&gt;&lt;span class=&#34;line&#34;&gt;&lt;span class=&#34;cl&#34;&gt;│    │    └─BatchNorm2d: 3-29                                [1, 64, 88, 88]           128
&lt;/span&gt;&lt;/span&gt;&lt;span class=&#34;line&#34;&gt;&lt;span class=&#34;cl&#34;&gt;│    └─BasicConv2d: 2-17                                     [1, 64, 88, 88]           --
&lt;/span&gt;&lt;/span&gt;&lt;span class=&#34;line&#34;&gt;&lt;span class=&#34;cl&#34;&gt;│    │    └─Conv2d: 3-30                                     [1, 64, 88, 88]           9,216
&lt;/span&gt;&lt;/span&gt;&lt;span class=&#34;line&#34;&gt;&lt;span class=&#34;cl&#34;&gt;│    │    └─BatchNorm2d: 3-31                                [1, 64, 88, 88]           128
&lt;/span&gt;&lt;/span&gt;&lt;span class=&#34;line&#34;&gt;&lt;span class=&#34;cl&#34;&gt;│    └─ReLU: 2-18                                            [1, 64, 88, 88]           --
&lt;/span&gt;&lt;/span&gt;&lt;span class=&#34;line&#34;&gt;&lt;span class=&#34;cl&#34;&gt;├─RFB_modified: 1-7                                          [1, 64, 44, 44]           --
&lt;/span&gt;&lt;/span&gt;&lt;span class=&#34;line&#34;&gt;&lt;span class=&#34;cl&#34;&gt;│    └─Sequential: 2-19                                      [1, 64, 44, 44]           --
&lt;/span&gt;&lt;/span&gt;&lt;span class=&#34;line&#34;&gt;&lt;span class=&#34;cl&#34;&gt;│    │    └─BasicConv2d: 3-32                                [1, 64, 44, 44]           18,560
&lt;/span&gt;&lt;/span&gt;&lt;span class=&#34;line&#34;&gt;&lt;span class=&#34;cl&#34;&gt;│    └─Sequential: 2-20                                      [1, 64, 44, 44]           --
&lt;/span&gt;&lt;/span&gt;&lt;span class=&#34;line&#34;&gt;&lt;span class=&#34;cl&#34;&gt;│    │    └─BasicConv2d: 3-33                                [1, 64, 44, 44]           18,560
&lt;/span&gt;&lt;/span&gt;&lt;span class=&#34;line&#34;&gt;&lt;span class=&#34;cl&#34;&gt;│    │    └─BasicConv2d: 3-34                                [1, 64, 44, 44]           12,416
&lt;/span&gt;&lt;/span&gt;&lt;span class=&#34;line&#34;&gt;&lt;span class=&#34;cl&#34;&gt;│    │    └─BasicConv2d: 3-35                                [1, 64, 44, 44]           12,416
&lt;/span&gt;&lt;/span&gt;&lt;span class=&#34;line&#34;&gt;&lt;span class=&#34;cl&#34;&gt;│    │    └─BasicConv2d: 3-36                                [1, 64, 44, 44]           36,992
&lt;/span&gt;&lt;/span&gt;&lt;span class=&#34;line&#34;&gt;&lt;span class=&#34;cl&#34;&gt;│    └─Sequential: 2-21                                      [1, 64, 44, 44]           --
&lt;/span&gt;&lt;/span&gt;&lt;span class=&#34;line&#34;&gt;&lt;span class=&#34;cl&#34;&gt;│    │    └─BasicConv2d: 3-37                                [1, 64, 44, 44]           18,560
&lt;/span&gt;&lt;/span&gt;&lt;span class=&#34;line&#34;&gt;&lt;span class=&#34;cl&#34;&gt;│    │    └─BasicConv2d: 3-38                                [1, 64, 44, 44]           20,608
&lt;/span&gt;&lt;/span&gt;&lt;span class=&#34;line&#34;&gt;&lt;span class=&#34;cl&#34;&gt;│    │    └─BasicConv2d: 3-39                                [1, 64, 44, 44]           20,608
&lt;/span&gt;&lt;/span&gt;&lt;span class=&#34;line&#34;&gt;&lt;span class=&#34;cl&#34;&gt;│    │    └─BasicConv2d: 3-40                                [1, 64, 44, 44]           36,992
&lt;/span&gt;&lt;/span&gt;&lt;span class=&#34;line&#34;&gt;&lt;span class=&#34;cl&#34;&gt;│    └─Sequential: 2-22                                      [1, 64, 44, 44]           --
&lt;/span&gt;&lt;/span&gt;&lt;span class=&#34;line&#34;&gt;&lt;span class=&#34;cl&#34;&gt;│    │    └─BasicConv2d: 3-41                                [1, 64, 44, 44]           18,560
&lt;/span&gt;&lt;/span&gt;&lt;span class=&#34;line&#34;&gt;&lt;span class=&#34;cl&#34;&gt;│    │    └─BasicConv2d: 3-42                                [1, 64, 44, 44]           28,800
&lt;/span&gt;&lt;/span&gt;&lt;span class=&#34;line&#34;&gt;&lt;span class=&#34;cl&#34;&gt;│    │    └─BasicConv2d: 3-43                                [1, 64, 44, 44]           28,800
&lt;/span&gt;&lt;/span&gt;&lt;span class=&#34;line&#34;&gt;&lt;span class=&#34;cl&#34;&gt;│    │    └─BasicConv2d: 3-44                                [1, 64, 44, 44]           36,992
&lt;/span&gt;&lt;/span&gt;&lt;span class=&#34;line&#34;&gt;&lt;span class=&#34;cl&#34;&gt;│    └─BasicConv2d: 2-23                                     [1, 64, 44, 44]           --
&lt;/span&gt;&lt;/span&gt;&lt;span class=&#34;line&#34;&gt;&lt;span class=&#34;cl&#34;&gt;│    │    └─Conv2d: 3-45                                     [1, 64, 44, 44]           147,456
&lt;/span&gt;&lt;/span&gt;&lt;span class=&#34;line&#34;&gt;&lt;span class=&#34;cl&#34;&gt;│    │    └─BatchNorm2d: 3-46                                [1, 64, 44, 44]           128
&lt;/span&gt;&lt;/span&gt;&lt;span class=&#34;line&#34;&gt;&lt;span class=&#34;cl&#34;&gt;│    └─BasicConv2d: 2-24                                     [1, 64, 44, 44]           --
&lt;/span&gt;&lt;/span&gt;&lt;span class=&#34;line&#34;&gt;&lt;span class=&#34;cl&#34;&gt;│    │    └─Conv2d: 3-47                                     [1, 64, 44, 44]           18,432
&lt;/span&gt;&lt;/span&gt;&lt;span class=&#34;line&#34;&gt;&lt;span class=&#34;cl&#34;&gt;│    │    └─BatchNorm2d: 3-48                                [1, 64, 44, 44]           128
&lt;/span&gt;&lt;/span&gt;&lt;span class=&#34;line&#34;&gt;&lt;span class=&#34;cl&#34;&gt;│    └─ReLU: 2-25                                            [1, 64, 44, 44]           --
&lt;/span&gt;&lt;/span&gt;&lt;span class=&#34;line&#34;&gt;&lt;span class=&#34;cl&#34;&gt;├─RFB_modified: 1-8                                          [1, 64, 22, 22]           --
&lt;/span&gt;&lt;/span&gt;&lt;span class=&#34;line&#34;&gt;&lt;span class=&#34;cl&#34;&gt;│    └─Sequential: 2-26                                      [1, 64, 22, 22]           --
&lt;/span&gt;&lt;/span&gt;&lt;span class=&#34;line&#34;&gt;&lt;span class=&#34;cl&#34;&gt;│    │    └─BasicConv2d: 3-49                                [1, 64, 22, 22]           36,992
&lt;/span&gt;&lt;/span&gt;&lt;span class=&#34;line&#34;&gt;&lt;span class=&#34;cl&#34;&gt;│    └─Sequential: 2-27                                      [1, 64, 22, 22]           --
&lt;/span&gt;&lt;/span&gt;&lt;span class=&#34;line&#34;&gt;&lt;span class=&#34;cl&#34;&gt;│    │    └─BasicConv2d: 3-50                                [1, 64, 22, 22]           36,992
&lt;/span&gt;&lt;/span&gt;&lt;span class=&#34;line&#34;&gt;&lt;span class=&#34;cl&#34;&gt;│    │    └─BasicConv2d: 3-51                                [1, 64, 22, 22]           12,416
&lt;/span&gt;&lt;/span&gt;&lt;span class=&#34;line&#34;&gt;&lt;span class=&#34;cl&#34;&gt;│    │    └─BasicConv2d: 3-52                                [1, 64, 22, 22]           12,416
&lt;/span&gt;&lt;/span&gt;&lt;span class=&#34;line&#34;&gt;&lt;span class=&#34;cl&#34;&gt;│    │    └─BasicConv2d: 3-53                                [1, 64, 22, 22]           36,992
&lt;/span&gt;&lt;/span&gt;&lt;span class=&#34;line&#34;&gt;&lt;span class=&#34;cl&#34;&gt;│    └─Sequential: 2-28                                      [1, 64, 22, 22]           --
&lt;/span&gt;&lt;/span&gt;&lt;span class=&#34;line&#34;&gt;&lt;span class=&#34;cl&#34;&gt;│    │    └─BasicConv2d: 3-54                                [1, 64, 22, 22]           36,992
&lt;/span&gt;&lt;/span&gt;&lt;span class=&#34;line&#34;&gt;&lt;span class=&#34;cl&#34;&gt;│    │    └─BasicConv2d: 3-55                                [1, 64, 22, 22]           20,608
&lt;/span&gt;&lt;/span&gt;&lt;span class=&#34;line&#34;&gt;&lt;span class=&#34;cl&#34;&gt;│    │    └─BasicConv2d: 3-56                                [1, 64, 22, 22]           20,608
&lt;/span&gt;&lt;/span&gt;&lt;span class=&#34;line&#34;&gt;&lt;span class=&#34;cl&#34;&gt;│    │    └─BasicConv2d: 3-57                                [1, 64, 22, 22]           36,992
&lt;/span&gt;&lt;/span&gt;&lt;span class=&#34;line&#34;&gt;&lt;span class=&#34;cl&#34;&gt;│    └─Sequential: 2-29                                      [1, 64, 22, 22]           --
&lt;/span&gt;&lt;/span&gt;&lt;span class=&#34;line&#34;&gt;&lt;span class=&#34;cl&#34;&gt;│    │    └─BasicConv2d: 3-58                                [1, 64, 22, 22]           36,992
&lt;/span&gt;&lt;/span&gt;&lt;span class=&#34;line&#34;&gt;&lt;span class=&#34;cl&#34;&gt;│    │    └─BasicConv2d: 3-59                                [1, 64, 22, 22]           28,800
&lt;/span&gt;&lt;/span&gt;&lt;span class=&#34;line&#34;&gt;&lt;span class=&#34;cl&#34;&gt;│    │    └─BasicConv2d: 3-60                                [1, 64, 22, 22]           28,800
&lt;/span&gt;&lt;/span&gt;&lt;span class=&#34;line&#34;&gt;&lt;span class=&#34;cl&#34;&gt;│    │    └─BasicConv2d: 3-61                                [1, 64, 22, 22]           36,992
&lt;/span&gt;&lt;/span&gt;&lt;span class=&#34;line&#34;&gt;&lt;span class=&#34;cl&#34;&gt;│    └─BasicConv2d: 2-30                                     [1, 64, 22, 22]           --
&lt;/span&gt;&lt;/span&gt;&lt;span class=&#34;line&#34;&gt;&lt;span class=&#34;cl&#34;&gt;│    │    └─Conv2d: 3-62                                     [1, 64, 22, 22]           147,456
&lt;/span&gt;&lt;/span&gt;&lt;span class=&#34;line&#34;&gt;&lt;span class=&#34;cl&#34;&gt;│    │    └─BatchNorm2d: 3-63                                [1, 64, 22, 22]           128
&lt;/span&gt;&lt;/span&gt;&lt;span class=&#34;line&#34;&gt;&lt;span class=&#34;cl&#34;&gt;│    └─BasicConv2d: 2-31                                     [1, 64, 22, 22]           --
&lt;/span&gt;&lt;/span&gt;&lt;span class=&#34;line&#34;&gt;&lt;span class=&#34;cl&#34;&gt;│    │    └─Conv2d: 3-64                                     [1, 64, 22, 22]           36,864
&lt;/span&gt;&lt;/span&gt;&lt;span class=&#34;line&#34;&gt;&lt;span class=&#34;cl&#34;&gt;│    │    └─BatchNorm2d: 3-65                                [1, 64, 22, 22]           128
&lt;/span&gt;&lt;/span&gt;&lt;span class=&#34;line&#34;&gt;&lt;span class=&#34;cl&#34;&gt;│    └─ReLU: 2-32                                            [1, 64, 22, 22]           --
&lt;/span&gt;&lt;/span&gt;&lt;span class=&#34;line&#34;&gt;&lt;span class=&#34;cl&#34;&gt;├─RFB_modified: 1-9                                          [1, 64, 11, 11]           --
&lt;/span&gt;&lt;/span&gt;&lt;span class=&#34;line&#34;&gt;&lt;span class=&#34;cl&#34;&gt;│    └─Sequential: 2-33                                      [1, 64, 11, 11]           --
&lt;/span&gt;&lt;/span&gt;&lt;span class=&#34;line&#34;&gt;&lt;span class=&#34;cl&#34;&gt;│    │    └─BasicConv2d: 3-66                                [1, 64, 11, 11]           73,856
&lt;/span&gt;&lt;/span&gt;&lt;span class=&#34;line&#34;&gt;&lt;span class=&#34;cl&#34;&gt;│    └─Sequential: 2-34                                      [1, 64, 11, 11]           --
&lt;/span&gt;&lt;/span&gt;&lt;span class=&#34;line&#34;&gt;&lt;span class=&#34;cl&#34;&gt;│    │    └─BasicConv2d: 3-67                                [1, 64, 11, 11]           73,856
&lt;/span&gt;&lt;/span&gt;&lt;span class=&#34;line&#34;&gt;&lt;span class=&#34;cl&#34;&gt;│    │    └─BasicConv2d: 3-68                                [1, 64, 11, 11]           12,416
&lt;/span&gt;&lt;/span&gt;&lt;span class=&#34;line&#34;&gt;&lt;span class=&#34;cl&#34;&gt;│    │    └─BasicConv2d: 3-69                                [1, 64, 11, 11]           12,416
&lt;/span&gt;&lt;/span&gt;&lt;span class=&#34;line&#34;&gt;&lt;span class=&#34;cl&#34;&gt;│    │    └─BasicConv2d: 3-70                                [1, 64, 11, 11]           36,992
&lt;/span&gt;&lt;/span&gt;&lt;span class=&#34;line&#34;&gt;&lt;span class=&#34;cl&#34;&gt;│    └─Sequential: 2-35                                      [1, 64, 11, 11]           --
&lt;/span&gt;&lt;/span&gt;&lt;span class=&#34;line&#34;&gt;&lt;span class=&#34;cl&#34;&gt;│    │    └─BasicConv2d: 3-71                                [1, 64, 11, 11]           73,856
&lt;/span&gt;&lt;/span&gt;&lt;span class=&#34;line&#34;&gt;&lt;span class=&#34;cl&#34;&gt;│    │    └─BasicConv2d: 3-72                                [1, 64, 11, 11]           20,608
&lt;/span&gt;&lt;/span&gt;&lt;span class=&#34;line&#34;&gt;&lt;span class=&#34;cl&#34;&gt;│    │    └─BasicConv2d: 3-73                                [1, 64, 11, 11]           20,608
&lt;/span&gt;&lt;/span&gt;&lt;span class=&#34;line&#34;&gt;&lt;span class=&#34;cl&#34;&gt;│    │    └─BasicConv2d: 3-74                                [1, 64, 11, 11]           36,992
&lt;/span&gt;&lt;/span&gt;&lt;span class=&#34;line&#34;&gt;&lt;span class=&#34;cl&#34;&gt;│    └─Sequential: 2-36                                      [1, 64, 11, 11]           --
&lt;/span&gt;&lt;/span&gt;&lt;span class=&#34;line&#34;&gt;&lt;span class=&#34;cl&#34;&gt;│    │    └─BasicConv2d: 3-75                                [1, 64, 11, 11]           73,856
&lt;/span&gt;&lt;/span&gt;&lt;span class=&#34;line&#34;&gt;&lt;span class=&#34;cl&#34;&gt;│    │    └─BasicConv2d: 3-76                                [1, 64, 11, 11]           28,800
&lt;/span&gt;&lt;/span&gt;&lt;span class=&#34;line&#34;&gt;&lt;span class=&#34;cl&#34;&gt;│    │    └─BasicConv2d: 3-77                                [1, 64, 11, 11]           28,800
&lt;/span&gt;&lt;/span&gt;&lt;span class=&#34;line&#34;&gt;&lt;span class=&#34;cl&#34;&gt;│    │    └─BasicConv2d: 3-78                                [1, 64, 11, 11]           36,992
&lt;/span&gt;&lt;/span&gt;&lt;span class=&#34;line&#34;&gt;&lt;span class=&#34;cl&#34;&gt;│    └─BasicConv2d: 2-37                                     [1, 64, 11, 11]           --
&lt;/span&gt;&lt;/span&gt;&lt;span class=&#34;line&#34;&gt;&lt;span class=&#34;cl&#34;&gt;│    │    └─Conv2d: 3-79                                     [1, 64, 11, 11]           147,456
&lt;/span&gt;&lt;/span&gt;&lt;span class=&#34;line&#34;&gt;&lt;span class=&#34;cl&#34;&gt;│    │    └─BatchNorm2d: 3-80                                [1, 64, 11, 11]           128
&lt;/span&gt;&lt;/span&gt;&lt;span class=&#34;line&#34;&gt;&lt;span class=&#34;cl&#34;&gt;│    └─BasicConv2d: 2-38                                     [1, 64, 11, 11]           --
&lt;/span&gt;&lt;/span&gt;&lt;span class=&#34;line&#34;&gt;&lt;span class=&#34;cl&#34;&gt;│    │    └─Conv2d: 3-81                                     [1, 64, 11, 11]           73,728
&lt;/span&gt;&lt;/span&gt;&lt;span class=&#34;line&#34;&gt;&lt;span class=&#34;cl&#34;&gt;│    │    └─BatchNorm2d: 3-82                                [1, 64, 11, 11]           128
&lt;/span&gt;&lt;/span&gt;&lt;span class=&#34;line&#34;&gt;&lt;span class=&#34;cl&#34;&gt;│    └─ReLU: 2-39                                            [1, 64, 11, 11]           --
&lt;/span&gt;&lt;/span&gt;&lt;span class=&#34;line&#34;&gt;&lt;span class=&#34;cl&#34;&gt;├─SFF: 1-10                                                  [1, 64, 22, 22]           --
&lt;/span&gt;&lt;/span&gt;&lt;span class=&#34;line&#34;&gt;&lt;span class=&#34;cl&#34;&gt;│    └─Sequential: 2-40                                      [1, 64, 22, 22]           --
&lt;/span&gt;&lt;/span&gt;&lt;span class=&#34;line&#34;&gt;&lt;span class=&#34;cl&#34;&gt;│    │    └─Conv2d: 3-83                                     [1, 64, 22, 22]           4,096
&lt;/span&gt;&lt;/span&gt;&lt;span class=&#34;line&#34;&gt;&lt;span class=&#34;cl&#34;&gt;│    │    └─BatchNorm2d: 3-84                                [1, 64, 22, 22]           128
&lt;/span&gt;&lt;/span&gt;&lt;span class=&#34;line&#34;&gt;&lt;span class=&#34;cl&#34;&gt;│    │    └─ReLU: 3-85                                       [1, 64, 22, 22]           --
&lt;/span&gt;&lt;/span&gt;&lt;span class=&#34;line&#34;&gt;&lt;span class=&#34;cl&#34;&gt;│    └─Sequential: 2-41                                      [1, 64, 22, 22]           --
&lt;/span&gt;&lt;/span&gt;&lt;span class=&#34;line&#34;&gt;&lt;span class=&#34;cl&#34;&gt;│    │    └─Conv2d: 3-86                                     [1, 64, 22, 22]           4,096
&lt;/span&gt;&lt;/span&gt;&lt;span class=&#34;line&#34;&gt;&lt;span class=&#34;cl&#34;&gt;│    │    └─BatchNorm2d: 3-87                                [1, 64, 22, 22]           128
&lt;/span&gt;&lt;/span&gt;&lt;span class=&#34;line&#34;&gt;&lt;span class=&#34;cl&#34;&gt;│    │    └─ReLU: 3-88                                       [1, 64, 22, 22]           --
&lt;/span&gt;&lt;/span&gt;&lt;span class=&#34;line&#34;&gt;&lt;span class=&#34;cl&#34;&gt;│    └─SelfAttentionBlock: 2-42                              [1, 64, 22, 22]           --
&lt;/span&gt;&lt;/span&gt;&lt;span class=&#34;line&#34;&gt;&lt;span class=&#34;cl&#34;&gt;│    │    └─Sequential: 3-89                                 [1, 32, 22, 22]           3,200
&lt;/span&gt;&lt;/span&gt;&lt;span class=&#34;line&#34;&gt;&lt;span class=&#34;cl&#34;&gt;│    │    └─Sequential: 3-90                                 [1, 32, 22, 22]           3,200
&lt;/span&gt;&lt;/span&gt;&lt;span class=&#34;line&#34;&gt;&lt;span class=&#34;cl&#34;&gt;│    │    └─Sequential: 3-91                                 [1, 32, 22, 22]           2,112
&lt;/span&gt;&lt;/span&gt;&lt;span class=&#34;line&#34;&gt;&lt;span class=&#34;cl&#34;&gt;│    │    └─Sequential: 3-92                                 [1, 64, 22, 22]           2,176
&lt;/span&gt;&lt;/span&gt;&lt;span class=&#34;line&#34;&gt;&lt;span class=&#34;cl&#34;&gt;│    └─Sequential: 2-43                                      [1, 64, 22, 22]           --
&lt;/span&gt;&lt;/span&gt;&lt;span class=&#34;line&#34;&gt;&lt;span class=&#34;cl&#34;&gt;│    │    └─Conv2d: 3-93                                     [1, 64, 22, 22]           73,728
&lt;/span&gt;&lt;/span&gt;&lt;span class=&#34;line&#34;&gt;&lt;span class=&#34;cl&#34;&gt;│    │    └─BatchNorm2d: 3-94                                [1, 64, 22, 22]           128
&lt;/span&gt;&lt;/span&gt;&lt;span class=&#34;line&#34;&gt;&lt;span class=&#34;cl&#34;&gt;│    │    └─ReLU: 3-95                                       [1, 64, 22, 22]           --
&lt;/span&gt;&lt;/span&gt;&lt;span class=&#34;line&#34;&gt;&lt;span class=&#34;cl&#34;&gt;├─Conv2d: 1-11                                               [1, 1, 22, 22]            65
&lt;/span&gt;&lt;/span&gt;&lt;span class=&#34;line&#34;&gt;&lt;span class=&#34;cl&#34;&gt;├─SFF: 1-12                                                  [1, 64, 44, 44]           --
&lt;/span&gt;&lt;/span&gt;&lt;span class=&#34;line&#34;&gt;&lt;span class=&#34;cl&#34;&gt;│    └─Sequential: 2-44                                      [1, 64, 44, 44]           --
&lt;/span&gt;&lt;/span&gt;&lt;span class=&#34;line&#34;&gt;&lt;span class=&#34;cl&#34;&gt;│    │    └─Conv2d: 3-96                                     [1, 64, 44, 44]           4,096
&lt;/span&gt;&lt;/span&gt;&lt;span class=&#34;line&#34;&gt;&lt;span class=&#34;cl&#34;&gt;│    │    └─BatchNorm2d: 3-97                                [1, 64, 44, 44]           128
&lt;/span&gt;&lt;/span&gt;&lt;span class=&#34;line&#34;&gt;&lt;span class=&#34;cl&#34;&gt;│    │    └─ReLU: 3-98                                       [1, 64, 44, 44]           --
&lt;/span&gt;&lt;/span&gt;&lt;span class=&#34;line&#34;&gt;&lt;span class=&#34;cl&#34;&gt;│    └─Sequential: 2-45                                      [1, 64, 44, 44]           --
&lt;/span&gt;&lt;/span&gt;&lt;span class=&#34;line&#34;&gt;&lt;span class=&#34;cl&#34;&gt;│    │    └─Conv2d: 3-99                                     [1, 64, 44, 44]           4,096
&lt;/span&gt;&lt;/span&gt;&lt;span class=&#34;line&#34;&gt;&lt;span class=&#34;cl&#34;&gt;│    │    └─BatchNorm2d: 3-100                               [1, 64, 44, 44]           128
&lt;/span&gt;&lt;/span&gt;&lt;span class=&#34;line&#34;&gt;&lt;span class=&#34;cl&#34;&gt;│    │    └─ReLU: 3-101                                      [1, 64, 44, 44]           --
&lt;/span&gt;&lt;/span&gt;&lt;span class=&#34;line&#34;&gt;&lt;span class=&#34;cl&#34;&gt;│    └─SelfAttentionBlock: 2-46                              [1, 64, 44, 44]           --
&lt;/span&gt;&lt;/span&gt;&lt;span class=&#34;line&#34;&gt;&lt;span class=&#34;cl&#34;&gt;│    │    └─Sequential: 3-102                                [1, 32, 44, 44]           3,200
&lt;/span&gt;&lt;/span&gt;&lt;span class=&#34;line&#34;&gt;&lt;span class=&#34;cl&#34;&gt;│    │    └─Sequential: 3-103                                [1, 32, 44, 44]           3,200
&lt;/span&gt;&lt;/span&gt;&lt;span class=&#34;line&#34;&gt;&lt;span class=&#34;cl&#34;&gt;│    │    └─Sequential: 3-104                                [1, 32, 44, 44]           2,112
&lt;/span&gt;&lt;/span&gt;&lt;span class=&#34;line&#34;&gt;&lt;span class=&#34;cl&#34;&gt;│    │    └─Sequential: 3-105                                [1, 64, 44, 44]           2,176
&lt;/span&gt;&lt;/span&gt;&lt;span class=&#34;line&#34;&gt;&lt;span class=&#34;cl&#34;&gt;│    └─Sequential: 2-47                                      [1, 64, 44, 44]           --
&lt;/span&gt;&lt;/span&gt;&lt;span class=&#34;line&#34;&gt;&lt;span class=&#34;cl&#34;&gt;│    │    └─Conv2d: 3-106                                    [1, 64, 44, 44]           73,728
&lt;/span&gt;&lt;/span&gt;&lt;span class=&#34;line&#34;&gt;&lt;span class=&#34;cl&#34;&gt;│    │    └─BatchNorm2d: 3-107                               [1, 64, 44, 44]           128
&lt;/span&gt;&lt;/span&gt;&lt;span class=&#34;line&#34;&gt;&lt;span class=&#34;cl&#34;&gt;│    │    └─ReLU: 3-108                                      [1, 64, 44, 44]           --
&lt;/span&gt;&lt;/span&gt;&lt;span class=&#34;line&#34;&gt;&lt;span class=&#34;cl&#34;&gt;├─Conv2d: 1-13                                               [1, 1, 44, 44]            65
&lt;/span&gt;&lt;/span&gt;&lt;span class=&#34;line&#34;&gt;&lt;span class=&#34;cl&#34;&gt;├─SFF: 1-14                                                  [1, 64, 88, 88]           --
&lt;/span&gt;&lt;/span&gt;&lt;span class=&#34;line&#34;&gt;&lt;span class=&#34;cl&#34;&gt;│    └─Sequential: 2-48                                      [1, 64, 88, 88]           --
&lt;/span&gt;&lt;/span&gt;&lt;span class=&#34;line&#34;&gt;&lt;span class=&#34;cl&#34;&gt;│    │    └─Conv2d: 3-109                                    [1, 64, 88, 88]           4,096
&lt;/span&gt;&lt;/span&gt;&lt;span class=&#34;line&#34;&gt;&lt;span class=&#34;cl&#34;&gt;│    │    └─BatchNorm2d: 3-110                               [1, 64, 88, 88]           128
&lt;/span&gt;&lt;/span&gt;&lt;span class=&#34;line&#34;&gt;&lt;span class=&#34;cl&#34;&gt;│    │    └─ReLU: 3-111                                      [1, 64, 88, 88]           --
&lt;/span&gt;&lt;/span&gt;&lt;span class=&#34;line&#34;&gt;&lt;span class=&#34;cl&#34;&gt;│    └─Sequential: 2-49                                      [1, 64, 88, 88]           --
&lt;/span&gt;&lt;/span&gt;&lt;span class=&#34;line&#34;&gt;&lt;span class=&#34;cl&#34;&gt;│    │    └─Conv2d: 3-112                                    [1, 64, 88, 88]           4,096
&lt;/span&gt;&lt;/span&gt;&lt;span class=&#34;line&#34;&gt;&lt;span class=&#34;cl&#34;&gt;│    │    └─BatchNorm2d: 3-113                               [1, 64, 88, 88]           128
&lt;/span&gt;&lt;/span&gt;&lt;span class=&#34;line&#34;&gt;&lt;span class=&#34;cl&#34;&gt;│    │    └─ReLU: 3-114                                      [1, 64, 88, 88]           --
&lt;/span&gt;&lt;/span&gt;&lt;span class=&#34;line&#34;&gt;&lt;span class=&#34;cl&#34;&gt;│    └─SelfAttentionBlock: 2-50                              [1, 64, 88, 88]           --
&lt;/span&gt;&lt;/span&gt;&lt;span class=&#34;line&#34;&gt;&lt;span class=&#34;cl&#34;&gt;│    │    └─Sequential: 3-115                                [1, 32, 88, 88]           3,200
&lt;/span&gt;&lt;/span&gt;&lt;span class=&#34;line&#34;&gt;&lt;span class=&#34;cl&#34;&gt;│    │    └─Sequential: 3-116                                [1, 32, 88, 88]           3,200
&lt;/span&gt;&lt;/span&gt;&lt;span class=&#34;line&#34;&gt;&lt;span class=&#34;cl&#34;&gt;│    │    └─Sequential: 3-117                                [1, 32, 88, 88]           2,112
&lt;/span&gt;&lt;/span&gt;&lt;span class=&#34;line&#34;&gt;&lt;span class=&#34;cl&#34;&gt;│    │    └─Sequential: 3-118                                [1, 64, 88, 88]           2,176
&lt;/span&gt;&lt;/span&gt;&lt;span class=&#34;line&#34;&gt;&lt;span class=&#34;cl&#34;&gt;│    └─Sequential: 2-51                                      [1, 64, 88, 88]           --
&lt;/span&gt;&lt;/span&gt;&lt;span class=&#34;line&#34;&gt;&lt;span class=&#34;cl&#34;&gt;│    │    └─Conv2d: 3-119                                    [1, 64, 88, 88]           73,728
&lt;/span&gt;&lt;/span&gt;&lt;span class=&#34;line&#34;&gt;&lt;span class=&#34;cl&#34;&gt;│    │    └─BatchNorm2d: 3-120                               [1, 64, 88, 88]           128
&lt;/span&gt;&lt;/span&gt;&lt;span class=&#34;line&#34;&gt;&lt;span class=&#34;cl&#34;&gt;│    │    └─ReLU: 3-121                                      [1, 64, 88, 88]           --
&lt;/span&gt;&lt;/span&gt;&lt;span class=&#34;line&#34;&gt;&lt;span class=&#34;cl&#34;&gt;├─Conv2d: 1-15                                               [1, 1, 88, 88]            65
&lt;/span&gt;&lt;/span&gt;&lt;span class=&#34;line&#34;&gt;&lt;span class=&#34;cl&#34;&gt;==============================================================================================================
&lt;/span&gt;&lt;/span&gt;&lt;span class=&#34;line&#34;&gt;&lt;span class=&#34;cl&#34;&gt;Total params: 523,776,534
&lt;/span&gt;&lt;/span&gt;&lt;span class=&#34;line&#34;&gt;&lt;span class=&#34;cl&#34;&gt;Trainable params: 7,225,830
…
